laion-mi-partial.pth (torch, 793671 bytes, 9 tensors)

image_stream.0.weight f4 [256, 64]
00000000: acb4 6dbd ac05 47bd 9af9 9abd a070 a93c
00000010: 9681 ccbd 20ab 8c3c 0691 f23c 8b39 223d
00000020: 4563 d43c c87d 42bd e6ff 4d3d 1d45 bdbd
00000030: 46c3 643d e521 833d 184d 513a e72c d0bd
00000040: 72f4 99bd 939d 363d 93de a63d cc92 0f3d
00000050: 87c9 6dbc d1e7 30bd b7ab 863c 08cc c0bd
00000060: 1b28 8e3d f7c1 0cbd 8e76 26bc ae59 9d3d
00000070: 8918 90bd 9cd7 07bd dffc cb3d bb57 0c3a
00000080: dc18 3e3d efc5 aabd cf0f 7a3d 0095 a3bd
00000090: f68b 913c 8782 1ebd 5090 0a3d 6a30 b9bd
000000a0: 999b afbc cfc7 b03c aae3 7d3d d1ec bbbc
000000b0: e696 06bb aa6f 6cbd 70d8 293c c6d9 7fbd
000000c0: 0f31 4e3d 1f6e 953d ac45 89bd 2019 a8bd
000000d0: 14b4 97bd 1f54 3e3d e928 d2ba 57ed 77bd
000000e0: b0f9 45bc 1eb3 c6bb a505 b2bc f9dc aeba
000000f0: 75fa 5fbc e630 bebc 14ab a5bd ae9f 8d3c
00000100: 6b2c 8bbc 5463 65bd ec09 08bd 5cfd 31bd
00000110: 5e2c 873d a262 8bbd af93 533d 5613 563d
00000120: 59c9 b4bc 91ec 7dbc 2682 06bd 200b 8ebd
00000130: ae8e ffbc eee9 a53d 53cd cbbd 4e38 a23d
00000140: 7301 adbc 3bf8 54bd 6c1e d0bd 5dc1 c03d
00000150: 4477 c0bc 3c11 a23d 431f c6bd 6ca2 c5bd
00000160: 12b1 66bc a91d c0bd 5a25 9cbd 5649 c0bd
00000170: bc92 e2bb 4630 b3bd bed5 bf3d 3d78 a03d
00000180: 760d fe3c ae16 b0bd 8853 a63d af04 bc3d
00000190: aeb7 4f3d 3bdf 74bd 99b4 273d b8b2 c4bc
000001a0: 61c8 c93d e8dd eebc 0953 afbc 8c53 b33d
000001b0: c20d 20bc 1fff c4bc 85c6 87bd bd37 2abd
000001c0: 1ef9 773c 95ca aa3d 802e d13d 3291 25bd
000001d0: d783 45bd 9956 b1bd b9ee 933d 3122 b7bc
000001e0: 036a b23d be69 a33d 9ece 1a3d 7508 ae3d
000001f0: 4dea b3bd f74b f3bc 7d15 a7bc 3c6e 12bd
00000200: 9e5c 923d 2c51 0c3d cf14 99bc 1d1e 3cbc
00000210: 44bd 6a3d 38ff 94bd 814d 8ebd 264b 703d
00000220: 1be3 ea3d e702 853c fa44 9a3c 0fc8 373d
00000230: a95f 543d 5003 643d 547f 7c3d 133a e73d
00000240: 8fd6 1b3d 1b64 92bd 8460 013d a910 72bc
00000250: 6d19 bdbd 16af 4cbd 3202 a5bc c010 023d
00000260: 5402 a03c ff28 98bc 4c98 ab3d ed7a 2a3c
00000270: e642 a73d 0e6e 8e3b 10c9 31bd 12c3 cf3d
00000280: 6128 ce3d 99ee aebd 9e31 233d 2530 c3b8
00000290: 96a2 c63d 6fe4 59bd 3e18 973d a9cd 323c
000002a0: 63be 97bd 6398 abbd ba80 083d 6633 263c
000002b0: c176 eeba 6a45 eabb 0260 c6bd b7ac 8f3d
000002c0: f672 cabd 9ea0 93bb 3e41 843d ba3f 9cbc
000002d0: 2cf0 b0bd aa85 69bd c2d2 163d 03e0 7d3d
000002e0: bac0 d9bb d1fb 893c 582b bf3c 9f62 ea3d
000002f0: c4a9 5cbd 29f6 e8bc 1313 95ba 7d25 7abd
00000300: 513c f5bc dd3a 8bbc a30d 1d3b 820a e63a
00000310: 536e d4bc e570 1f3c b42b dd3c fdec 84bc
00000320: 260d b9bc 6cbe 41bc 0ef5 ffbb b6c3 70bc
00000330: 71eb 97bc 97b5 2d3b 67a6 17bc db01 c13c
00000340: d994 223c 1147 ed3c 2f2b 9d3c 38c2 5abc
00000350: d3ab 73bb 0df1 e53b 00f8 80bc 4501 a1bc
00000360: 0480 ba3c b2a3 2f3c fd08 b23a c614 d2bb
00000370: 7e60 09bc 6f06 0cbc 4c87 31bc 9d67 babc
00000380: f0db a8bc 8618 62bb bb84 b13b 835d dc3c
00000390: 5e33 d53c e8ca aeba 497d 873c c9e4 9cbc
000003a0: fcdc b3bc 27b0 59bc 2740 b7bc e33b f4bb
000003b0: ac3f 75bc 28cb ddbb 276e 493c ef13 e23c
000003c0: b186 9ebc ad0a 2d3c 8a5b 323c bf8c 043b
000003d0: a42b e13a 42d8 a53c ad19 823c 88d9 adba
000003e0: b3e0 3dbc 9167 3dbc 9898 6a3b 49b7 b93c
000003f0: fe01 403c 3399 a63b c9c1 8a3c 6061 a5bb
-0.05803363 -0.048589393 -0.07567139 0.020683587 -0.09985654 0.017171443 0.029610168 0.03960566
0.025926242 -0.047483236 0.050292872 -0.09241698 0.05585029 0.06402949 0.0007984205 -0.101648144
-0.07517327 0.04458387 0.081479214 0.035052106 -0.01451338 -0.043189827 0.016439302 -0.09413916
0.06941243 -0.034364667 -0.010160102 0.07683121 -0.0703593 -0.033164605 0.09960341 0.0005353649
0.046410426 -0.08338534 0.061050232 -0.07987404 0.017766934 -0.0386987 0.033829033 -0.090424374
-0.0214365 0.021579651 0.061984695 -0.022940071 -0.002053672 -0.05772368 0.010366544 -0.062463544
0.050339755 0.072963946 -0.06702742 -0.08207917 -0.07407394 0.046466943 -0.0016033921 -0.06052908
-0.012083456 -0.006063833 -0.021731207 -0.0013341001 -0.013670553 -0.023216676 -0.08089271 0.017288055
-0.016988954 -0.05600293 -0.033212587 -0.043454513 0.06600259 -0.06805922 0.051654514 0.052264534
-0.022068666 -0.015498296 -0.032838963 -0.06935716 -0.031195965 0.08101259 -0.09951272 0.079208955
-0.021118855 -0.051994544 -0.101620525 0.09411881 -0.02349437 0.079134434 -0.096739314 -0.0965012
-0.014080303 -0.09380657 -0.07624312 -0.09388988 -0.0069144648 -0.08749442 0.0936694 0.07835434
0.031012278 -0.08598076 0.08121401 0.09180581 0.05071228 -0.0597832 0.040943716 -0.024011001
0.09852672 -0.029158548 -0.021401899 0.0875617 -0.009768905 -0.024047432 -0.066296615 -0.041557062
0.015135078 0.08339421 0.10213947 -0.040421672 -0.048221435 -0.08659095 0.07223267 -0.02235517
0.087116264 0.07979153 0.0377947 0.08497707 -0.08784924 -0.029699309 -0.020395989 -0.03574966
0.071465716 0.0342571 -0.01868668 -0.011481789 0.057309404 -0.072752416 -0.069483764 0.058665417
0.11469098 0.016236736 0.018831719 0.044868525 0.05184904 0.05566722 0.061644867 0.11290374
0.038046416 -0.07148 0.031586185 -0.01477448 -0.09233365 -0.049971662 -0.020142648 0.031754255
0.01953236 -0.018574236 0.08378658 0.010405284 0.08167057 0.0043466156 -0.04340464 0.101446286
0.100662954 -0.08541603 0.03984224 -9.307292e-05 0.096989796 -0.053196367 0.07377671 0.010913291
-0.0740936 -0.08378675 0.03332589 0.01014409 -0.001819335 -0.007149388 -0.09686281 0.070153646
-0.09885208 -0.004505231 0.064577565 -0.019073356 -0.08639559 -0.057012238 0.036822088 0.061981212
-0.0066452892 0.016843708 0.023336098 0.11444592 -0.05387284 -0.02843769 -0.0011373482 -0.061070908
-0.029935988 -0.016995842 0.0023964427 0.0017550739 -0.025931513 0.009731506 0.026998378 -0.016226286
-0.022589277 -0.011825185 -0.007811195 -0.014695099 -0.018544884 0.002650594 -0.009255982 0.023560455
0.009923183 0.028964551 0.01918563 -0.013351969 -0.0037181273 0.007017261 -0.015743256 -0.019653926
0.02276612 0.01072018 0.0013583001 -0.006411168 -0.008384822 -0.008546456 -0.01083548 -0.022754485
-0.020612687 -0.003449948 0.005417434 0.026900059 0.02602547 -0.0013335617 0.016539233 -0.019152062
-0.02195596 -0.013286627 -0.022369457 -0.007453428 -0.014968794 -0.006768603 0.012294329 0.027597396
-0.019351335 0.010561627 0.010886082 0.0020225493 0.0017179144 0.020244721 0.015881384 -0.0013263682
-0.011589217 -0.011560337 0.003579652 0.022670405 0.011719225 0.0050841807 0.016938107 -0.0050470084

image_stream.0.bias f4 [256]
00000000: 0ede ca3d 59c1 8e3d 7cb9 bbbd ce18 003d
00000010: fe84 9c3d b99f cf3d 9df3 a4bd 15d7 ec3d
00000020: 0669 023e e39b 86bd 8832 be3c 438f 86bd
00000030: 6289 f43d 0f87 adbc 54fb a5bd cf8e d33d
00000040: 16cb ebbd 36dc 793b 5edc a4bd 5dfc 453d
00000050: b7d9 98bd d184 d9bc 9154 773b 15f7 af3d
00000060: 063a 0fbc b5a5 cbbc c074 eabd ad0d 933c
00000070: 30de 0abd 3200 47bd 99d2 9fbd ac21 90bc
00000080: 488f 963d 9b72 9bbd 1e3c b83d d70f 8f3c
00000090: 3838 03be afc5 5e3d 5346 aabd d7b9 283d
000000a0: 6a66 bf3d ded4 dd3d a496 c33d 7817 97bd
000000b0: fc05 8a3b bab7 e2bc 97de 283d 3abf a1bd
000000c0: 52c9 95bd 3ff8 e23d 3cef 093e fbaf 96bd
000000d0: 82b0 b6bd 6779 7abd ed11 a13d 341c 163c
000000e0: 9def 673d 1d3e bebd d86c 8ebd b2a5 e53d
000000f0: 5361 e2bc 47bf 903d 205f bf3d 18dd 1c3c
00000100: 4d06 073c 8255 af3d 3fd7 8bbd a379 9c3d
00000110: aa6b 83bd f4ca d73c 197e d1bd 86e8 b33d
00000120: 395b a43d 2d36 9fbd a3c3 b83d 7924 673c
00000130: 5ae1 efbb c31e 9e3d 1508 333d 9242 80bd
00000140: 506e ab3c ac4c d23d 6c43 62bd a634 71bd
00000150: fb3b 9fbc 2704 9dbd aa12 ab3b 000d 8a3d
00000160: bb9a 96bd c106 68bd 60ac c9bd e410 cd3d
00000170: 54e6 c23d 84af 23bc e1e4 e3bd f716 923d
00000180: b6c5 07bd 9a03 e4bb de7c ed3d 8acd a43d
00000190: 0a5f db3c 1526 4dbb 893c 9cbc 5e5f 93bd
000001a0: 0611 ba3d b2e0 e23c 282f f43b dcbd 3abd
000001b0: 85f1 683d 1cde 873d 8e88 e03d c028 83ba
000001c0: 1ca0 933c 0c54 b5bd a173 93bd 3236 b7bc
000001d0: 1e7c 0c3b cad6 a0bd 3dc8 d4bd c5d7 763d
000001e0: 4bcf adbd 206e b9bd 065b 88bd 7749 c83b
000001f0: 8440 373c 16c5 99bd eb82 7cbc 6152 c0bd
00000200: 7895 54bd 8614 bf3d 777c e43d 9c24 9e3d
00000210: 56af b93a f516 6bbc a077 aabd 3b9f 8c3d
00000220: a04f 7cba 9fb7 d23a bd5c 81b9 4827 c53d
00000230: 996b 283d fb4b aabd 32af 733d 4fb0 43bc
00000240: 60b4 393c fe56 8bbd a252 94bd 629a e6bd
00000250: a547 cdbd b6dd a0bd 426a d93c 4996 803d
00000260: 2636 c63a 0bdd bcbd 3a3f 7a3d 4242 00bd
00000270: c27e fabd 231c d4bd b055 7ebd 6ae4 29bd
00000280: 95c5 c03d 7efe e93c 1d04 613c 6896 ec3c
00000290: 36e7 083d b8fd c0bc 9f8f 29bd d37a 043d
000002a0: 8c14 b63d 0776 8e3d c924 19bd bf14 9c3d
000002b0: 85fa a03d a2f0 9f3d 116e bdbd aa44 413d
000002c0: d6e7 0fbd 2827 9bbd 8e4a e73a 39e0 47bd
000002d0: c122 9cbd 601c dcba f205 b53d d74c 30bd
000002e0: a72a 91bc 801b b9bd 8e45 c0bd 3784 793d
000002f0: 7b5d 283d 60ff 48bd 4626 aebd 64f8 c1bd
00000300: d5db 8c3d 5964 b83d 07d8 003d feee a73d
00000310: 8d02 f13d 04f5 5e3d f3b0 c03d 6a42 643d
00000320: eaea b6bd 45a8 08be ee93 a1bd f1d3 8a3d
00000330: 5b69 343d b02b 823d e84a 9ebd c395 b13d
00000340: 4b65 92bb f14c bcbd e08c 613c 3853 10bc
00000350: ce82 5fbc ff09 27bc 15fd 183d 7b03 bfbc
00000360: 7f28 6dbd 9ed0 d5bc d02d 0fbd 55ae 99bb
00000370: db56 5c3c cc6f f43b 8f8f 333d ec01 bd3d
00000380: ab58 91bd a5b9 ea3c 46d2 bebd 36a5 9ebd
00000390: 435f ebbb c30b 9a3d 8dfa cbbd 5a88 84bc
000003a0: 57d3 a2bd 42c3 9b3c 0040 b7bc c260 b4bd
000003b0: 9547 cbbd 06da ac3d a414 363d 3b63 b5bd
000003c0: 1202 b0bd 3104 8a3d 0f99 803d 740a a7bd
000003d0: f3ff d73c ca4d 013c a34c 063c 94f8 bdbd
000003e0: 8f31 bdbd cf85 cfbd 80dd 85bd 2f73 90bd
000003f0: b77b d83d 0672 e23d 6284 c43d a935 c3bd
0.09905635 0.06970472 -0.09166238 0.031273656 0.07642554 0.101378866 -0.08054278 0.11564461
0.12735376 -0.06572702 0.023217455 -0.06570294 0.11940266 -0.021182565 -0.08104578 0.10329973
-0.11513345 0.003812564 -0.08049844 0.048336376 -0.07463401 -0.02655259 0.0037739614 0.08592049
-0.008741861 -0.024859289 -0.114480495 0.017950857 -0.0339033 -0.04858417 -0.0780384 -0.017594181
0.073515475 -0.07590219 0.089958414 0.017463608 -0.12814415 0.054387745 -0.083141945 0.041192856
0.09345706 0.10831617 0.09550217 -0.07377523 0.004212139 -0.027675498 0.041227903 -0.07897802
-0.073137894 0.110825054 0.13470167 -0.07357784 -0.08920385 -0.061150935 0.07864747 0.009161998
0.056624997 -0.09289191 -0.06954354 0.112132445 -0.027634298 0.07067733 0.093443155 0.009574197
0.008241248 0.08561231 -0.06828164 0.07640388 -0.0641702 0.026341893 -0.10229129 0.08784585
0.08025212 -0.07774005 0.0902169 0.014107817 -0.007320565 0.07720711 0.04370888 -0.06262697
0.020926625 0.1026853 -0.05524008 -0.0588881 -0.01943778 -0.076668076 0.005220731 0.06740761
-0.07353731 -0.056647066 -0.09847331 0.10012987 0.09516588 -0.009990577 -0.111276396 0.071332864
-0.033147536 -0.006958437 0.11596082 0.08047016 0.026778717 -0.0031303216 -0.019071834 -0.07195924
0.09085278 0.027695034 0.0074519105 -0.04559122 0.056870956 0.06634161 0.10963546 -0.0010006651
0.018020682 -0.08853921 -0.07199789 -0.02236471 0.0021436284 -0.07853468 -0.10389755 0.060264368
-0.084868036 -0.09054208 -0.06657986 0.0061122733 0.011184815 -0.07508294 -0.015412073 -0.093907125
-0.051900357 0.093300864 0.11156552 0.077218264 0.0014166634 -0.014348735 -0.08323598 0.06866308
-0.0009624902 0.0016076452 -0.00024673893 0.09626633 0.041118238 -0.083152734 0.05949325 -0.011943891
0.011334509 -0.06803702 -0.072423235 -0.11259915 -0.10023431 -0.07854788 0.026539925 0.062786646
0.0015122339 -0.09221848 0.061095454 -0.03131319 -0.122312084 -0.10356929 -0.062093437 -0.0414776
0.09412686 0.028563734 0.013733891 0.028880313 0.033423625 -0.023558483 -0.041396733 0.032343697
0.08890638 0.06956106 -0.037388597 0.076211445 0.07860283 0.07809569 -0.09249509 0.047184624
-0.035133205 -0.07575828 0.001764612 -0.04879782 -0.07623816 -0.0016793124 0.088390246 -0.04304203
-0.017720534 -0.09038448 -0.093882665 0.060917106 0.041104775 -0.04907167 -0.08503394 -0.09471205
0.06877867 0.09003515 0.03145602 0.08199881 0.11768065 0.054432884 0.094087504 0.0557274
-0.08931525 -0.1334544 -0.078895435 0.06778706 0.044045787 0.06355989 -0.07729131 0.08671143
-0.0044676415 -0.09194363 0.013766497 -0.008808903 -0.013642026 -0.010195254 0.037350733 -0.02331709
-0.05789995 -0.026100453 -0.0349558 -0.0046899715 0.013448442 0.0074596163 0.04383808 0.09228882
-0.0709699 0.028652975 -0.0931745 -0.07746355 -0.007182987 0.075217746 -0.09959898 -0.016178299
-0.07950466 0.019014005 -0.022369385 -0.088075176 -0.099257626 0.08440022 0.04445328 -0.08856817
-0.08594145 0.06739081 0.062791936 -0.08156291 0.026367163 0.0078920815 0.008196983 -0.09275928
-0.09237968 -0.10132944 -0.065363884 -0.070532195 0.10570472 0.110569045 0.095955625 -0.09531719

text_stream.0.weight f4 [256, 64]
00000000: f635 70bb a7ca 563b 7d5d 493b 9624 d83a
00000010: 2f49 893a ff8a 1939 4d3f 923a 87d0 3c39
00000020: 36aa 193a 8ab1 da39 b3d6 1c3a 4a0d 263a
00000030: 3f05 893a cf15 5b3a f37b 3a3a 2005 d239
00000040: fb36 5a3a 33e3 983a 5e1d a23a 0e66 903a
00000050: 2f6e 893a bbf4 8e3a 65ba 923a d00a c43a
00000060: d1a7 db3a 82ab fa3a 25fb e53a f15f f73a
00000070: 7b8c dd3a 4408 6f3a e990 0c3a be42 893a
00000080: fa4e 883a 62fb 833a b8f3 cc3a 7624 ec3a
00000090: dad1 cd3a 9f82 493a 08bf af37 d784 edb9
000000a0: 903b 60ba 962e 8cba 6a47 80ba 30f0 c3ba
000000b0: f023 04bb 031b 46bb ca2b 46bb f15f 63bb
000000c0: 6472 80bb ba53 93bb abfe b6bb 468d a7bb
000000d0: 948a b0bb 5ee8 d3bb 468a d5bb 7abb 01bc
000000e0: 1679 fabb c125 19bc 51e0 cdbb d29f b6bb
000000f0: 6a7d cfbb 04ad edbb db51 55bc b297 4ebc
00000100: 85cb 8dbc 7b99 0dbc 4d93 8ebb c328 e9bb
00000110: c311 41bc 75ac 1fbc bee9 04bc 9d3a 11bc
00000120: 5b5e 1fbc 7081 10bc b550 24bc 93e1 2dbc
00000130: 771a 26bc 2fb0 27bc f8a4 24bc f59a 2dbc
00000140: fa81 2dbc d20f 23bc a59e 23bc 4f39 1abc
00000150: 0d84 21bc cc9b 20bc 9536 16bc ee63 06bc
00000160: 59fa 0abc b926 fdbb 9e00 fcbb 9e16 d9bb
00000170: d53c dcbb 7559 fdbb 9707 03bc 0396 d3bb
00000180: 4476 cbbb cf02 d5bb 7806 b0bb f4bc d6bb
00000190: f2b0 dabb 4c82 0abc b5e5 2dbc 6f83 23bc
000001a0: ad06 14bc cdfd 01bc 638b 00bc b165 eebb
000001b0: 180d e2bb 9c58 04bc 02a0 01bc 3b86 22bc
000001c0: 6f2c 2dbc ddea ffbb 6f76 1abc 2d21 02bc
000001d0: e564 f0bb 5549 f5bb 6684 e2bb d388 18bc
000001e0: 3ae8 20bc 9e9f 4fbc d498 4fbc 9191 4ebc
000001f0: e092 51bc 431a 94bc d7b1 b4bc ca89 65bc
00000200: 7d51 27bd 0034 8abc 4f51 0abc 7501 82bc
00000210: bef4 dbbc b9fb c4bc cc98 9abc 3605 b4bc
00000220: 6c1d bdbc 1683 b2bc 0266 c5bc cad2 cfbc
00000230: bee9 c1bc 071a c9bc 5efb c6bc a63c d3bc
00000240: 4b42 cdbc 8c15 bebc 72ec bbbc d1f8 b3bc
00000250: 959b bdbc e43e bbbc d5b8 b2bc f739 9cbc
00000260: cf8e 9fbc 7a70 8ebc 4ee9 8fbc e305 74bc
00000270: eed0 79bc b13c 98bc b584 a2bc 8b98 80bc
00000280: 85b0 79bc a073 81bc 3d23 4cbc 6927 68bc
00000290: 2409 73bc 2291 a2bc 2692 d4bc ab7c ccbc
000002a0: 8130 c2bc 0e5c b1bc 11ae b0bc 14d7 aebc
000002b0: 8e5a b2bc d405 d5bc b685 d2bc 4f53 fabc
000002c0: beb3 06bd d5a0 e0bc c8ac 04bd d8a3 eabc
000002d0: 094b e4bc 834f f0bc 5bf4 e3bc 9949 0fbd
000002e0: 5c3f 0ebd d6bd 32bd 1218 1dbd 1883 13bd
000002f0: e948 1dbd 74d0 48bd 2b71 84bd 73a4 3bbd
00000300: e614 c53a 8408 a53a 32a8 823a 5f6a 843a
00000310: 5419 7b3a 9328 5a3a 280a 2f3a 918a 263a
00000320: b161 243a 3c6c 1c3a 31c8 1e3a d136 0b3a
00000330: 239d 073a 7cb1 0a3a 62fa 133a 97a1 273a
00000340: 09cb 2e3a d6a9 273a 4353 2b3a 5f5e 253a
00000350: 0d38 1d3a afce 243a 9196 013a 644e 113a
00000360: 1c93 113a 2bb7 043a c2eb 0d3a 2a35 083a
00000370: ced4 013a 0a3b 113a 95c2 103a eca7 043a
00000380: 5e41 053a 9d09 1c3a 5adb 0b3a 4302 153a
00000390: b44a 253a 125d 2c3a 4cf1 293a 3ea3 293a
000003a0: da05 323a ba40 2f3a aa5d 373a 2e00 3b3a
000003b0: e83d 273a 76a8 2d3a 4c9a 1e3a e01c 523a
000003c0: 2dee 3d3a 81e1 363a ff95 303a de78 2d3a
000003d0: 0038 2e3a 8473 ef39 db11 e539 7e86 ed39
000003e0: 4957 dd39 9b50 dd39 0863 3539 de79 8137
000003f0: ac06 3439 b734 7c39 fc57 a239 54a2 0cba
-0.0036653257 0.0032774599 0.003072589 0.0016490396 0.0010474081 0.00014642997 0.0011157781 0.0001800676
0.000586185 0.00041712477 0.00059829204 0.00063343777 0.0010453834 0.0008357437 0.0007113807 0.0004005814
0.0008324233 0.001166439 0.0012368371 0.0011016743 0.0010485108 0.0010906676 0.0011194466 0.0014956836
0.0016758387 0.00191246 0.001754616 0.0018873197 0.0016902828 0.0009118358 0.00053621695 0.0010472161
0.0010399513 0.0010069425 0.0015636599 0.0018016237 0.00157028 0.00076870056 2.0950582e-05 -0.00045303136
-0.00085537974 -0.0010695036 -0.0009786908 -0.0014948901 -0.0020163022 -0.0030228503 -0.0030238503 -0.0034694637
-0.0039198864 -0.004496065 -0.005584558 -0.0051132767 -0.0053876135 -0.0064669093 -0.0065167276 -0.007918233
-0.007643829 -0.00934738 -0.006282844 -0.0055732513 -0.006332089 -0.007253291 -0.013020004 -0.012609409
-0.01730896 -0.00864255 -0.0043510557 -0.007115455 -0.01178402 -0.009745707 -0.008112369 -0.008864072
-0.009727086 -0.008819923 -0.010029008 -0.010612863 -0.010138146 -0.010234877 -0.010049097 -0.010596027
-0.010590071 -0.009952502 -0.009986554 -0.0094130775 -0.0098581435 -0.00980277 -0.009168287 -0.008202536
-0.008482539 -0.0077255634 -0.0076905033 -0.0066250106 -0.006721119 -0.0077316114 -0.007997415 -0.006457092
-0.0062091667 -0.006500579 -0.005371865 -0.0065532867 -0.0066739256 -0.008453917 -0.010613848 -0.009980067
-0.009034795 -0.007934046 -0.007845732 -0.007275306 -0.0068985336 -0.008077767 -0.007911684 -0.009919698
-0.010569676 -0.0078099803 -0.009427651 -0.00794248 -0.0073362463 -0.0074855485 -0.006912756 -0.009309965
-0.009820992 -0.012672333 -0.012670714 -0.012607948 -0.012791365 -0.018078929 -0.022057457 -0.014009902
-0.040849198 -0.016870499 -0.008442237 -0.015869835 -0.0268501 -0.024045812 -0.018871687 -0.021975141
-0.023085319 -0.021791022 -0.024096493 -0.025369067 -0.023671027 -0.024548544 -0.024289783 -0.025785755
-0.025056025 -0.023203634 -0.022939894 -0.02196923 -0.023145476 -0.022857137 -0.02181665 -0.019070609
-0.019477276 -0.017387617 -0.017567303 -0.014893982 -0.015247567 -0.018583627 -0.01983867 -0.015697738
-0.015239839 -0.015802205 -0.012459573 -0.014169552 -0.014833722 -0.019844595 -0.025948595 -0.02496179
-0.02370477 -0.02165034 -0.021567376 -0.021342792 -0.021771695 -0.026003756 -0.025698524 -0.030557303
-0.03288626 -0.02742044 -0.03239134 -0.02864258 -0.02786781 -0.02933479 -0.027826479 -0.034982298
-0.034728393 -0.043638073 -0.038353033 -0.036013693 -0.03839961 -0.04902692 -0.064668976 -0.045811128
0.0015036135 0.0012591039 0.0009968339 0.0010102502 0.00095786643 0.0008322086 0.00066772336 0.00063530455
0.00062706607 0.0005967056 0.00060570525 0.00053105975 0.00051732565 0.00052907295 0.0005644915 0.0006394623
0.0006667828 0.0006395852 0.0006535539 0.0006308313 0.0005997427 0.0006286902 0.00049433956 0.0005542992
0.0005553232 0.00050626945 0.0005413854 0.00051959103 0.000495267 0.00055401085 0.0005522159 0.00050604227
0.0005083288 0.000595236 0.0005335115 0.0005684236 0.0006305382 0.0006575148 0.00064827944 0.00064711634
0.0006791033 0.0006685365 0.0006994853 0.00071335107 0.0006379769 0.0006624529 0.00060502137 0.0008015167
0.0007245269 0.0006976352 0.00067362183 0.0006617437 0.0006645918 0.00045671698 0.00043691587 0.00045304367
0.00042217437 0.0004221246 0.00017298397 1.5434747e-05 0.00017168623 0.0002405223 0.000309646 -0.0005364765

text_stream.0.bias f4 [256]
00000000: c9dc 90bb 9680 893b 0045 8a3b a4fc 1b39
00000010: fcd7 4eb9 9d7e 573b 3de7 a837 509e 60bb
00000020: 4bac bfbc 6ff7 4138 ad11 81bb 9e71 4a3a
00000030: 9809 d9b9 57ed 7138 823c 2d3b 7a3c 293b
00000040: 4fe1 96b9 52f5 cfb9 1204 8237 f136 a2ba
00000050: 8c7e d5bb 6652 a1bc 1d9a 47bb 9654 b0bb
00000060: dc26 cd38 4d77 2cbb bd57 7537 ebad 5cb9
00000070: 12c3 1bb9 4daa 9db7 d2f6 4cb9 cf7b 35ba
00000080: 61b4 4439 b09a c9b8 732c 203c beb5 32b9
00000090: 2b7f ca39 7c94 41b9 8e7f ecb8 e998 a4bb
000000a0: e0e2 83bb 92b8 8939 fcb9 7fb7 ff8f dc38
000000b0: 463d 25ba 502f f33b ac95 9d3a 7adf 2f37
000000c0: f1ae 72ba 84ae d6ba bd5a 0a3c 2e62 ecba
000000d0: 2326 b9bb 4ac6 c3b8 d738 2fbb 76d3 6f3c
000000e0: efd2 45ba c105 40b8 a6bb 373a 3faf 1e3c
000000f0: 2e2c 96b9 785a 5937 ab38 df37 5c11 51b8
00000100: 1ed7 4ab9 72ae 123a fb66 1dba 3f0a 64bc
00000110: 91e0 8938 09bc b4bb f576 2bbb 953b a2bb
00000120: c9a7 5db9 0390 bfba d0cc 59bb e699 a63b
00000130: eef1 393a 268d d9ba d58b a139 620d f536
00000140: 58e9 4c3c 7208 71b7 105a bf36 3e8a b1ba
00000150: 50c8 2f3c 02c4 a53b 26d4 dc38 08a5 8137
00000160: a770 0438 e234 14b9 c5d8 8535 8ef0 40b8
00000170: c491 733b ffa3 a037 3f5b 64bb 687e 68bc
00000180: 2eaa 70bb 0db6 8c3b 1697 5339 a96c 82b9
00000190: 49de 25b9 4695 f8b8 0e3c d9b9 ac19 82bb
000001a0: d6cb 7dbb 018b 2538 545f 4fba 3c57 f1b8
000001b0: d97d a6bb f020 0b3b d12e 6f35 f715 8535
000001c0: 829d c03b 4b2d 51bb 148f 8136 0dc3 93ba
000001d0: d451 40bc 7f2e a3bb e083 6cb8 c07d 7e3b
000001e0: b1fb 423c e2a9 6bb8 5111 4ebc 090e db37
000001f0: 7da7 96b9 7ad0 0f3c f5e9 ae3b 3bc6 dbba
00000200: 899f 5d3b d71c bd39 01a8 963c f5a7 123a
00000210: 7e48 5538 025c 193a 332d c539 38ed 5138
00000220: 9086 9839 364b c5ba ae65 1ab9 3262 29bb
00000230: 3e1c cdba 3e65 8739 c927 45b7 f42a 4838
00000240: a2c1 6937 9f5c 0638 3f2a 493b ebb5 edbb
00000250: 676e f9bb 7018 8938 438c 84ba 7ac5 bd3b
00000260: 95ec 8eba a827 e03b 6919 7ebb 41d4 ddb7
00000270: 322a 3bba 702a 19bc 38d5 68bc 438a 2b3b
00000280: 4374 3f38 a75d 1cbc 9db6 f637 abba ec32
00000290: 2504 a5bb 4dee 38bb 8278 8c3a b2a0 b0b9
000002a0: 7f61 d83b 2c81 8a3b 1aab c437 9adc 653c
000002b0: a8bf 6939 cfae ddba 9735 e939 f922 9eb8
000002c0: 0fd5 53bb e5a9 e337 d3c0 8d37 8f0a ab39
000002d0: 2f4a 6839 1257 093c e4b0 f3b8 ebd3 183b
000002e0: 6d6c 97bb aae9 26bc 2c17 4eba 4f31 3638
000002f0: 72b4 e037 528b 4d39 2add c8b7 9309 ab3a
00000300: 78c7 023c 16cc 3339 d006 47b9 eec2 4839
00000310: fb08 15bb 75ee 2bba 3585 0bb9 1a3e 37bb
00000320: 90a6 2fbc edb0 7cbb 7e51 3038 9c9a 07ba
00000330: 61c1 ebbb 2b83 c1bb 0fc8 d1b9 46f8 d13a
00000340: aa5b 48ba 5531 f5b6 53a7 6c3b 0e71 11ba
00000350: 13a5 05bb 4fac 74b3 caf6 8038 c231 1339
00000360: 120d e336 ad1d 46ba d313 8db4 1846 5b3b
00000370: ff0c 03ba f9ce 80b9 d57f 22b9 a6c6 f03a
00000380: 1613 263b 6a7f 6138 a6e3 4bb6 0302 b63b
00000390: db7b 243c 0740 93bc 48b3 0538 b20a d3bb
000003a0: fefa 5c3a 6c79 bab9 2c84 f93a ca97 00b9
000003b0: 29a3 4a3b 6e16 04bb 5578 12bb 815c 35b6
000003c0: 5a1a 543a a1f4 a1b9 088f 6abc a6c3 f03a
000003d0: cc68 ac3b c189 d4b9 5604 4dbb d401 47b9
000003e0: e5e9 b73a 101c 86b8 e7cc e53c 4b4e 1138
000003f0: c936 8437 a00d 7038 8458 c9b9 9bdf 8bbb
-0.004420851 0.004196237 0.004219651 0.00014876068 -0.00019726151 0.0032881864 2.013484e-05 -0.003427405
-0.023397585 4.6245226e-05 -0.0039388747 0.0007722619 -0.00041396613 5.7679918e-05 0.002643377 0.00258234
-0.00028778097 -0.00039664895 1.5499103e-05 -0.0012375993 -0.0065153297 -0.019692611 -0.003045685 -0.005381177
9.7824e-05 -0.0026316226 1.4623566e-05 -0.00021045624 -0.00014854621 -1.8795161e-05 -0.00019546904 -0.0006923051
0.00018759213 -9.61324e-05 0.0097762225 -0.00017043107 0.0003862319 -0.00018461229 -0.00011277116 -0.005023111
-0.0040248483 0.00026268192 -1.5242487e-05 0.00010517239 -0.0006303381 0.0074214116 0.0012022755 1.0482845e-05
-0.00092576357 -0.0016378914 0.008444485 -0.0018034631 -0.005650298 -9.335259e-05 -0.002673676 0.014637819
-0.0007546385 -4.5781726e-05 0.0007008858 0.009685337 -0.00028643146 1.2955272e-05 2.661006e-05 -4.984565e-05
-0.00019344359 0.00055954524 -0.000600442 -0.0139184585 6.574498e-05 -0.0055155796 -0.0026163433 -0.0049509504
-0.00021138707 -0.0014615062 -0.003323365 0.005084264 0.000709324 -0.0016597852 0.00030812496 7.303127e-06
0.012506805 -1.4366686e-05 5.7027282e-06 -0.0013545228 0.010728911 0.0050587663 0.00010529933 1.5454847e-05
3.1576168e-05 -0.0001413408 9.97236e-07 -4.60004e-05 0.003716574 1.9149853e-05 -0.0034844426 -0.014190294
-0.0036722529 0.004294163 0.00020178812 -0.0002487649 -0.00015818434 -0.00011853366 -0.0004143421 -0.0039703455
-0.0038726232 3.9468523e-05 -0.00079106283 -0.00011508024 -0.00508092 0.002122935 8.9102565e-07 9.915665e-07
0.0058781514 -0.0031917866 3.861156e-06 -0.001127334 -0.011738259 -0.004979908 -5.6389603e-05 0.0038832277
0.011900828 -5.618658e-05 -0.012577371 2.611337e-05 -0.00028735018 0.008777732 0.0053379484 -0.0016767451
0.0033817014 0.00036070377 0.018390657 0.00055944856 5.085067e-05 0.0005850197 0.00037608444 5.005041e-05
0.00029091956 -0.0015052322 -0.00014724463 -0.0025845882 -0.0015648676 0.00025824638 -1.1751378e-05 4.772372e-05
1.3932966e-05 3.203435e-05 0.0030695347 -0.0072543523 -0.007612038 6.537221e-05 -0.0010112602 0.0057913633
-0.0010904247 0.006840665 -0.003877247 -2.6444091e-05 -0.00071397715 -0.009348497 -0.014210992 0.002617494
4.5646226e-05 -0.009543813 2.9410521e-05 2.7558903e-08 -0.0050358945 -0.002821821 0.0010717066 -0.00033689063
0.0066034193 0.0042268243 2.3444696e-05 0.014029646 0.00022292009 -0.0016913059 0.0004448115 -7.540541e-05
-0.0032323038 2.7139622e-05 1.68983e-05 0.00032623528 0.0002215288 0.008382576 -0.000116200914 0.0023319672
-0.0046210797 -0.010187546 -0.0007861729 4.3438104e-05 2.6786907e-05 0.00019602224 -2.3944845e-05 0.0013049118
0.007982127 0.00017146798 -0.00018980657 0.00019146103 -0.0022740948 -0.0006558665 -0.00013305696 -0.00279606
-0.010720864 -0.0038557604 4.2037565e-05 -0.000517288 -0.0071946834 -0.005905529 -0.00040012642 0.0016019426
-0.00076430535 -7.307312e-06 0.0036110475 -0.00055481575 -0.0020392581 -5.696739e-08 6.149484e-05 0.00014037549
6.7666488e-06 -0.00075575226 -2.627772e-07 0.0033458527 -0.000499919 -0.0002456827 -0.00015497145 0.0018369749
0.0025340966 5.3762844e-05 -3.0381866e-06 0.005554439 0.010039295 -0.017974867 3.187664e-05 -0.006440484
0.0008429735 -0.0003556715 0.0019036583 -0.00012263577 0.0030920005 -0.002015497 -0.0022349556 -2.7024946e-06
0.0008091085 -0.00030890576 -0.014316328 0.0018368855 0.005261516 -0.00040538426 -0.0031283102 -0.000189788
0.0014031498 -6.394845e-05 0.028051807 3.464361e-05 1.5761138e-05 5.723315e-05 -0.00038403657 -0.004268599

fusion_stream.0.weight f4 [256, 512]
00000000: 490f 953b 8352 f83c 490e bfbc 9114 c53b
00000010: 085e afbc 1b56 003d 07e4 253c 3a32 5fbc
00000020: 5b80 abbc 2884 0fbd 96bb 593c 4803 8a3c
00000030: f17a d4bc cb70 493b 8d21 8cbc 1e9e 223d
00000040: 898f 25bc 4e40 e53a b4cc 3ebd 39d9 8c3b
00000050: 7728 45bc a977 83bb 139d fc3c d9ea 81bc
00000060: 304f e739 178b 20ba bddb 9f3b b299 bd3d
00000070: db7f 05bb 51c1 fabb 5480 3cbc f131 63bb
00000080: 7643 1b3d 73fd 0abc 616d ed3c 9afc 5d3b
00000090: b6db cebc 72f3 0c3d 1a3f 2abd b854 3abb
000000a0: 9d7d e63c 449a 683d e1a1 463c fba6 7dbb
000000b0: 2dee 2d3b 382f 7d3c 35cf 79bb dfc0 23bd
000000c0: d423 623b ac14 053c c134 01bd 0ed7 1c3d
000000d0: 3863 e4bc 595a b0bc 5e6f 983b 53db 21bd
000000e0: 72b5 9e3c d15a 463b a118 fcbc 0aaf 0e3d
000000f0: c18b 1c3a eb19 a1bc d1da e13b 11b1 5b3d
00000100: beca 32bb 2628 9b3b 1bf0 dcbc 11c9 583b
00000110: 4675 93bc e812 eebb 0758 b83c 2a66 18bd
00000120: 8573 4abd 5e78 6dbb 4ffa e93c bcaa 1cbd
00000130: 954a f4b9 9e37 2dbd ddd0 eabb 3622 11bd
00000140: 103a 733a 90e9 28bd f9c3 923c 15c8 4dbd
00000150: 4a7a 343b 4462 a1bc f1e6 843b ff46 113d
00000160: a727 44bd f14e f3bc cf70 363c c5d0 1a3d
00000170: 39bd 0f3b 0258 4ebb c13a 4a3c 58de 2a3c
00000180: e8cb 27bc 4184 903b c641 213d 0df8 1f3d
00000190: eb96 b3b9 be1b be3a d600 c23c 0cf8 0bbd
000001a0: 4617 0c3b 5e2c 8b3b eaee 38bb 9af1 123d
000001b0: 69f9 553c ab54 693c 8fc0 253d c1e6 cb39
000001c0: a63b e03b abd9 69bd 0fb5 82bc 22ea 1b3b
000001d0: aab1 3ebc 924e c7bc 373a 71bc c9e8 e2bc
000001e0: b9e3 ffbc b3f9 babb d106 e43c 0a77 143a
000001f0: cd5f 8fbb d4ea 4cbc 77f4 acba dde7 42bd
00000200: 2f19 6bbc 41dd 2e3d 233e f63c 5038 7ebc
00000210: d2d3 89ba 0222 bf3d 7215 da3c bdb8 643d
00000220: 645d 9b39 dc86 81bb 49d8 173c f267 dfbc
00000230: b068 323c 6854 9e3b 9b61 f7bb 0af8 903c
00000240: 6a97 1f3d 34ed 8ebc f70e 2dbd 71e2 91bc
00000250: 7cfe 50bd eb79 ecbc 733c d5bb 9562 af3b
00000260: a95c 01bd 0dea 04bd 83c9 5e3b aadb 323b
00000270: a6e2 05bd 4fa0 08bd 668c e03b bfd4 433c
00000280: 4b00 f1bc 2be7 9d3b b605 60bb bd42 9d3b
00000290: cc59 053c ae63 39bd 98be 0a3c d4ea 89bb
000002a0: bb53 343d 6679 4e3d 6954 953b d3f9 643c
000002b0: 291d 8c3c d1a8 afbc f993 45bc ad7f 1cba
000002c0: 2255 0fbc 1d53 893c c206 2abd 57ae 6d3c
000002d0: 9ad4 493c eb3f 37ba 2432 c43c 32ef bf3b
000002e0: ef94 52bc 1afc 2fbd 5206 7dbb 0068 853b
000002f0: c98a 1abc 01c7 ca3c cae2 2e3d 0f98 d8bc
00000300: 2126 653c 8750 ebbc 74c8 813b 4c61 273b
00000310: 5fe2 b9ba 43c7 303c 2b7f 943c 4b83 b43b
00000320: de25 bf3b ed9e 21bd c20a a63b 843a c43c
00000330: c2c5 05bd 0224 efbc 908c da3c a035 1f3d
00000340: c8c6 793b 6362 4bbc 850b 82bb 89d5 843a
00000350: ce7c 0dbb 0d75 9a3b 68e6 b13b 20c0 f2bb
00000360: cfde dcbc f2c6 8d3b 1823 af3c 18df bfbc
00000370: 5822 a4bc cb54 2a3b 15a3 7fbc 0bc5 debb
00000380: d4b9 0b3d 78ff ca3b 1926 23bd a656 4fbc
00000390: e48d 953b d8e5 e83b 34ef 633c 5e71 abbb
000003a0: a826 c1bc f071 28bb ddb7 213b 0e30 df3c
000003b0: 2f9b f4bc f962 1b3d 388d 8a3c 7044 40bd
000003c0: 008e c83b e7af 86bb a160 36bd 5dc1 0abd
000003d0: 20ff 1d3c 4d38 68bb cd58 6ab9 e964 33bd
000003e0: fc9a 13bd 86e1 e13c 9e1e 023c 44ac b0bc
000003f0: bca1 ca3c 008b 7ebb 4fe8 c03c 96ec 65bc
0.0045489413 0.030312782 -0.023322241 0.0060144146 -0.021407142 0.031332117 0.010125167 -0.013622815
-0.020935228 -0.035038143 0.013289353 0.016847268 -0.02593753 0.0030737396 -0.017105842 0.039701574
-0.010105022 0.0017490478 -0.04658194 0.004298356 -0.012033573 -0.0040120673 0.030836618 -0.015859054
0.00044118753 -0.00061242416 0.0048784898 0.09257831 -0.0020370397 -0.0076524396 -0.011505205 -0.0034667219
0.037906133 -0.008483279 0.02898282 0.0033872486 -0.02525125 0.034411855 -0.041564085 -0.0028431844
0.028136069 0.056787744 0.012123556 -0.0038704264 0.002653967 0.015453152 -0.003811789 -0.039978858
0.0034506219 0.008122604 -0.03154445 0.03829103 -0.027879342 -0.021527456 0.004651948 -0.039515804
0.01937363 0.0030266533 -0.030773463 0.0348349 0.00059717527 -0.019665679 0.00689254 0.05363566
-0.0027281488 0.0047350107 -0.02696996 0.003307883 -0.018000256 -0.0072654374 0.022502912 -0.037206806
-0.049426574 -0.0036235075 0.02856174 -0.038248762 -0.00046594875 -0.04228937 -0.0071660117 -0.035433017
0.00092783663 -0.041238368 0.017915713 -0.05023964 0.002753871 -0.019700177 0.0040558507 0.035468098
-0.047889378 -0.029700728 0.011135294 0.037796754 0.0021932854 -0.0031485562 0.01234311 0.010428987
-0.010241486 0.004410297 0.039369367 0.03905492 -0.00034253983 0.0014504117 0.02368204 -0.034172103
0.0021376177 0.0042472323 -0.0028218576 0.03587494 0.013059952 0.014241378 0.04046684 0.00038891102
0.006843048 -0.05709235 -0.015955476 0.0023790677 -0.011639038 -0.024329457 -0.014723352 -0.027698891
-0.031236516 -0.005706036 0.027835282 0.000566349 -0.004375434 -0.012507159 -0.0013195415 -0.047584403
-0.014349266 0.042691473 0.030058926 -0.015516356 -0.0010515398 0.09332658 0.026621554 0.055840243
0.00029633485 -0.003952844 0.009267875 -0.027271245 0.010889217 0.0048318394 -0.0075494773 0.0176964
0.03896276 -0.017447092 -0.0422506 -0.017808171 -0.051023945 -0.028866729 -0.0065074502 0.005352328
-0.03158251 -0.03244977 0.0033994622 0.0027291575 -0.032686852 -0.033356007 0.0068526743 0.011952578
-0.029419085 0.004818817 -0.0034183091 0.0047992156 0.008139085 -0.045261078 0.008468293 -0.004208902
0.044025164 0.050408743 0.0045571816 0.013975578 0.017103748 -0.021442803 -0.012059205 -0.0005969953
-0.008748325 0.016763264 -0.04151035 0.014506898 0.012318755 -0.00069904205 0.02394969 0.0058573717
-0.012852891 -0.042965032 -0.0038608504 0.0040712357 -0.009432503 0.024753096 0.04269675 -0.026439695
0.013986141 -0.028724922 0.0039606635 0.0025540171 -0.0014181844 0.010789695 0.018127045 0.0055088154
0.0058333715 -0.039458204 0.0050672004 0.023953684 -0.0326593 -0.029191975 0.026678354 0.0388695
0.0038112868 -0.012413594 -0.0039686584 0.0010134439 -0.0021589282 0.0047136606 0.005429078 -0.007408157
-0.026961712 0.0043266946 0.021379039 -0.02342181 -0.020035908 0.0025990482 -0.015602847 -0.0067983917
0.034112766 0.006195005 -0.039831255 -0.012654936 0.004564034 0.0071074776 0.013912011 -0.0052320203
-0.023578003 -0.0025702678 0.0024676241 0.027244594 -0.029859154 0.037936185 0.016913041 -0.046940267
0.0061204433 -0.0041103247 -0.044525746 -0.03387581 0.009643346 -0.0035433949 -0.0002234906 -0.043797407
-0.036036476 0.027573358 0.00794187 -0.021566518 0.024735324 -0.0038840175 0.023548273 -0.014033457

fusion_stream.0.bias f4 [256]
00000000: 685a 003d 74c9 ebbc 222e 023d fc7c 33bd
00000010: 0d2a 41bd fec8 c73c 92c4 9d3a 61e8 b23c
00000020: 65d1 db3a db87 c43c f4c3 88bc 9b12 0bbd
00000030: d3d2 06bd 5bfa d5bb 3368 013d 553a 693b
00000040: a0a1 87bc a242 e1bb 5888 713c 4d5b 963c
00000050: ca17 28bd 8a71 053d faf6 e6bc 386e 1cbd
00000060: 1f81 42bc c92e f53c a605 81bd 79a6 8abd
00000070: d4f0 19bd 96b5 d13c acac ad3c 7828 5ebc
00000080: e6fb 0ebd e582 3dbc 0b29 e33c f7b8 30bd
00000090: c273 ddbc dbfb a1bc 1828 4b3d 6650 9abc
000000a0: 9cad 5bbc 3e22 44bd d0ed 8bbb 4fb4 dcbc
000000b0: 0a9c b7bc 6a6a 113d 7d6c 12bd c218 afbc
000000c0: b81a 7c3c d4bd 91bc ed10 9c3c a990 0fbb
000000d0: 5105 efbc 7d18 d8bc 3e9c fe3c aef0 70bd
000000e0: cc8b f9bc 70ad 56bc efd9 94bc 5f77 a1bc
000000f0: 1c61 4b3c ac1e e33c fd34 343c 8181 49bd
00000100: 5b20 abbc aeba 873b 3400 9dbc 5a1f ae3c
00000110: 6950 c1bc f74c 0dbd 5ba1 2cbd 8855 0a3d
00000120: 8675 bebc 773d 20bd b354 9dba f7be 063d
00000130: 4aac 223c 7d6e c2bc 1a58 b7bc c5d3 dcbc
00000140: fb55 9d3d 5ef8 ddbb 6a6f 0ebd 6e88 f33b
00000150: 445e 54bc cda3 9e3c 4995 0bbd e238 243b
00000160: 9d13 09bc cb68 de3c 0ed9 11bd e4f1 c33c
00000170: 81b2 95ba 94a9 adbc 7aa7 123d 4719 c03c
00000180: e01f 84bc 02a1 043d 3cbf 60bb 15c5 49bd
00000190: 4cea c6bc 1ed4 183d 24c8 7bbc fbbc 64bd
000001a0: ea85 f33c 1bed 0b3c 998f aabc 830d f1bc
000001b0: 8080 143d b81d 84bc 5c9f 0fbd 434d 1e3c
000001c0: 8568 02bc 19be e9bc 558c 123d 033b 5abc
000001d0: 2b1f 3dbd 804e 1a3c 0c5f 48bd dd43 a93c
000001e0: a5af 26bc ec52 cabc 6b66 8cbc 94c0 303d
000001f0: 7e38 773c d207 703c 114b 00bd f7f1 0abd
00000200: 0014 e73c 323b 6dbc ed1a 6e3c 34c7 063d
00000210: 358c 1cbd 5bc3 c9bc 2c74 403d 7e17 b63b
00000220: ec09 473a b781 213d bc02 cdbc 2a29 5fbc
00000230: 9e0b 90bc 8625 71bc 6fff 743c d6f1 00bc
00000240: 8445 d9bc f083 4abd b3b6 d03b be87 2ebb
00000250: c998 033d b70a b53c 6c29 35bc eecf 8d3c
00000260: c9a6 48bd e4be 53bd 8668 c6bc 247d 51bd
00000270: d77d 6b3c 9c49 183d 799a 5d3c 1d55 08bd
00000280: c1b0 b6bc ff67 183d 5160 68bc c13b ac3c
00000290: e7f3 153c a05c 61bb 4319 e7bc 3906 10bd
000002a0: cfe5 f6bc b7c8 82bc 000f d23c 2f1b 303d
000002b0: 1f56 1b3b 4b2a 61bc 856f 62bd 70e4 cebc
000002c0: d73f 11b7 3c93 eabb c1dd 8abc cf2d 7bbc
000002d0: 1669 60bb eca4 e33c ab35 093d 0b31 273c
000002e0: e39a 973c 1426 0abc 9785 30bd 4fb0 00bd
000002f0: 1e29 053d 79f5 97bc c15d 843c e9d5 8a3c
00000300: 3568 05bd 5b45 103d 9474 88bc 5c0a 693c
00000310: 3d8f 033d 3a3d 3bbd a927 77bc fa3b e2ba
00000320: 4383 a7bc e13d 99bc b744 de3c 7a50 eb3c
00000330: 1708 15bd fc61 993b 50f7 dfbc 5f25 6bbc
00000340: 0855 26bd 526e 863b 9211 00bd efc2 dbbc
00000350: 56e4 a3bb 2fd4 043c 8290 143c 1890 f33c
00000360: 2ecb 4dbc 0f8f 0dbd d760 93bc 41d0 413c
00000370: 2bc6 a8bc 3f2a ab3c 89b7 243d 6749 fbbc
00000380: 43c0 fcbc e288 c13b 65fb b33c aafb 1b3d
00000390: 0be9 ea3a d114 ccba 1ebd 683c 4f25 a63c
000003a0: 89f1 203d 463b fcbc e928 b2bc 42f9 7cbc
000003b0: f90a bdbb c164 0e3c 9fd7 c73c b15f 1e3d
000003c0: 2a5f 3ebb 0b9e 25bd 77fb 2a3d 597e 533d
000003d0: 4c16 97bb c984 8fbd 6c5c cbbb d25e 06bb
000003e0: 3c0b 1a3c 7d71 833b 9cfc 10bd 485c 1ebb
000003f0: fd5c 4d3d 8da3 013d 1413 503c f9df d2bc
0.031336218 -0.028782584 0.031782277 -0.043820366 -0.047159243 0.024387833 0.0012036732 0.021839323
0.0016770778 0.023990562 -0.016695 -0.03395329 -0.0329159 -0.006530089 0.031593513 0.0035587747
-0.016556561 -0.0068743983 0.01474198 0.018354082 -0.041038312 0.032578982 -0.02819394 -0.03819105
-0.011871605 0.029929535 -0.062999055 -0.067700334 -0.037583187 0.025599282 0.0212005 -0.013559453
-0.034908198 -0.011566852 0.027729532 -0.043145146 -0.027032737 -0.019773414 0.049598783 -0.018837165
-0.013408091 -0.04788422 -0.004270293 -0.026941447 -0.022413272 0.035501875 -0.035747994 -0.02137411
0.01538723 -0.017790712 0.01905104 -0.0021906293 -0.02917734 -0.026378864 0.031080361 -0.05882328
-0.030462168 -0.013102874 -0.018170325 -0.01971024 0.012413289 0.027724586 0.0109989615 -0.04919577
-0.020889452 0.004142127 -0.019165136 0.021255184 -0.023597913 -0.034497228 -0.042146068 0.033772975
-0.023249399 -0.039121117 -0.0012003392 0.032896962 0.009928772 -0.023734326 -0.022380877 -0.026956448
0.07682415 -0.0067739924 -0.03477422 0.007432035 -0.012961928 0.019365216 -0.034077916 0.002505832
-0.008366493 0.027149579 -0.03560739 0.023919053 -0.0011420996 -0.021199025 0.03580425 0.023449553
-0.01612848 0.03238011 -0.0034293672 -0.049260218 -0.024281643 0.037311666 -0.015367541 -0.05584429
0.029726941 0.008540417 -0.020820426 -0.029425388 0.03625536 -0.016127452 -0.035064086 0.009661975
-0.00795949 -0.028533028 0.035778362 -0.013319734 -0.046172302 0.00941813 -0.04891877 0.020662243
-0.010173713 -0.024697743 -0.01713868 0.043152407 0.015089152 0.014650302 -0.03132159 -0.033922162
0.028207779 -0.014479445 0.014532787 0.03290482 -0.03821965 -0.024629286 0.04698579 0.0055569997
0.0007592726 0.039430346 -0.025025718 -0.013620654 -0.017583665 -0.014718419 0.014953478 -0.007870158
-0.026522405 -0.04944223 0.0063694357 -0.0026631202 0.03212813 0.022099836 -0.011057239 0.017311063
-0.048987184 -0.05169572 -0.024219763 -0.051144734 0.014373264 0.037179574 0.013525599 -0.033284295
-0.02230108 0.037208553 -0.01418312 0.021024587 0.009152389 -0.0034387484 -0.028210288 -0.035162184
-0.030138878 -0.015964849 0.025641918 0.042994674 0.0023702455 -0.013742994 -0.055282135 -0.025255412
-8.657537e-06 -0.007158665 -0.016951444 -0.015330746 -0.0034242324 0.027788602 0.033498447 0.010204564
0.018506473 -0.00843193 -0.04309615 -0.03141814 0.032509916 -0.018549668 0.016157987 0.016947703
-0.032570083 0.035222393 -0.016657151 0.014223661 0.032119025 -0.045712687 -0.015085139 -0.0017260306
-0.020448333 -0.018706264 0.027132375 0.028724898 -0.03638467 0.00468087 -0.027339607 -0.014352172
-0.040608436 0.0041025067 -0.031266756 -0.02682635 -0.005001585 0.008107229 0.0090676565 0.029731795
-0.012560649 -0.03456026 -0.017990513 0.011829437 -0.020602306 0.020894168 0.040214095 -0.03067465
-0.030853396 0.0059062103 0.02197046 0.038081802 0.0017922235 -0.0015570169 0.014205245 0.020281462
0.039292846 -0.030789983 -0.021748023 -0.015440287 -0.0057691303 0.008691014 0.024394808 0.038665477
-0.0029048421 -0.040433925 0.04174372 0.051634166 -0.0046108123 -0.07007749 -0.006206086 -0.0020503295
0.009402093 0.0040113316 -0.035397157 -0.002416389 0.05013751 0.031650115 0.012699861 -0.025741564

fusion_stream.2.weight f4 [128, 256]
00000000: 79d7 1b3c a845 e2bb 9f91 f6bc 7aee ac3c
00000010: 91d4 cfbc 9e6e f83b bb3d a3bb 605f fdbc
00000020: c702 85bb 0d56 8abc c3a0 c73c cdc0 1f3d
00000030: 9dd7 743d 18de ae3b ebc1 8abd 3a28 983a
00000040: 67f4 413c 628f 14bc f582 0bbd b3c5 19bc
00000050: 2a7e 193d cbdd 393d da48 dc3c bbcf 463d
00000060: a3e9 cebc 4dff 023c e1c7 1d3d ceee 093d
00000070: e945 783d 3ef4 2a3c b37a 533d 49c1 413c
00000080: f91d 23bd 4775 9a3c c4bd 253d 7ac8 f63c
00000090: 46eb e83c 6cc2 85bc 8b1e a3ba 5415 92bc
000000a0: 28e4 9dbc 5542 4b3b cb2b 05bc c02d 1f3d
000000b0: f78e febc 0f2b dfbc 6351 06bb 4312 db3c
000000c0: b858 b6bc 304f 3cbd 6112 513d d86c 013c
000000d0: b785 35bc a380 4d3d 30d0 9b3c e99a 013c
000000e0: 7a39 f03c 5eba 9bbc b01e 963d 4f10 2f3c
000000f0: ad82 903c 4318 203d e91c acbc 38c5 f2bc
00000100: a6f1 80bc db30 e03c c685 4e3a fb1a f93c
00000110: b287 503c 2d10 363d 4f8c 6f3c a79b e13b
00000120: 3590 3f3d a412 a03c a3d4 e93b 89ec 98bc
00000130: 97d6 463c 7d96 453d 41a5 20bc 44cd 1f3d
00000140: 984e 94bd 106f 9fbb 7228 263d 6c3d c53b
00000150: b740 65bc 5e0c e1bc 59f9 b53b 8a8f 8bbd
00000160: 9506 5fbc 8088 913b 09b8 db3c c49a fbbc
00000170: 8f87 603c 890f e4b9 bba4 eebc 269d ea3c
00000180: 0b1f 8d3c 7733 13bd 6c62 463c e646 423c
00000190: 8e28 97bb f97b 0d3d 8203 06bd 0a96 183d
000001a0: cc7f 7e3d dc5f e4bc a591 2ebc 4291 ea3c
000001b0: c6d5 35bd e9df 7d3c 8cd8 9abb 9074 34bd
000001c0: 302a 1ebc a601 553d 5093 81bc efe6 abbc
000001d0: 3e51 303c e9ad 0bbc 2bfb b8bb 7830 3fbc
000001e0: 055d 1fbc c151 163d 49bb 59bd e519 4cbd
000001f0: 2cae debc 0403 2bbc 3fa9 f639 ac1d 6abc
00000200: ca68 d2bc 1672 d23a b553 7c3b bcb7 103d
00000210: 6556 62bc f879 9d3b 3a36 4c3c 2d0a 963c
00000220: 1fb5 853c 1a1a 6dbb 94ca 283d fef8 8f3c
00000230: 3411 1d3b 7502 403c 8e5e 6f3d a611 1e3c
00000240: 5f08 aabc 425a 01bb 6208 2d3b 96fd 653c
00000250: 1b5f 25bd 497b 38bc 4b6d e23b 6dad 7c3b
00000260: 69b0 9abb bdea 513d 1ce9 6c3d 5518 80bc
00000270: ac1d 09bd f27c 17bd 3fc5 97bc 4a33 f63c
00000280: 1d03 54bd 494b 98bd a657 233d 0b31 233d
00000290: d696 9ebc 348b a9bb e72f 263d 9a78 a2bc
000002a0: 5d86 ed3c bd3a 913c d655 f8bc 9318 4abd
000002b0: 2136 363b 2e3e 043d 722a 843d e6ee 103d
000002c0: c12a 09bb 46f0 f6bc f9ab 5bbd ae94 16bd
000002d0: 236f 393c 067f cfbc 628d c83c 8c6f a23b
000002e0: 1dec 803b 26c6 b5bb a30c 78bb 89bd 3e3c
000002f0: 93bd b63b f887 6abd a632 5b3d 50c3 53bd
00000300: cda9 d83c 08f3 05bc 0ee5 cbbc 6d52 123c
00000310: f4f7 53bc 5bc0 38bc f63e 883c 4868 b8bc
00000320: 0901 cc3c 7fb3 083c 1d41 d1bc 39a5 8bbd
00000330: ce61 743c 3c30 173c 09b9 003d 37da 003d
00000340: 1e6a 0a3d 63e7 55bb f659 3e3d 72b0 543d
00000350: 3b0a 033c 26a9 da3b 989d cbbc 1a44 8bbc
00000360: ba81 a53c 1382 7d3a 9084 1a3c 30c0 cabb
00000370: 382b a4bc 1046 ef3c 1c7f 683c d94b b13c
00000380: fa42 cabb bcae 14bb 73d6 823c f0c7 433d
00000390: 0f5d 94bb fb47 14bc 3ab9 4cbb b54b 63bd
000003a0: e971 9c3c 4800 a33c 00b4 0a3d 3af3 08bd
000003b0: c9f5 e5bc 7d42 89bc 9b11 f0bc f5b6 ea3c
000003c0: e096 c3bb f23a 463d 8c1c 24bd 9e5c c0bb
000003d0: 683c 603a 106a f83c da30 7dba f1d1 063c
000003e0: 3076 cf3c d525 b33c abcb 8f3c 9f2c fc3b
000003f0: fd47 0a3d abe5 2dbc d267 f83b 21ec 673c
0.009511822 -0.0069052763 -0.030098734 0.021109808 -0.025369914 0.007581546 -0.004981724 -0.030929267
-0.004059169 -0.016886735 0.02436865 0.03900223 0.059775937 0.005336534 -0.06775268 0.0011608668
0.011838055 -0.009067388 -0.034060437 -0.009385514 0.037473835 0.045377534 0.026890207 0.04853795
-0.025257891 0.007995439 0.038520698 0.033675008 0.060613547 0.010434208 0.051630687 0.011825868
-0.039823506 0.01885475 0.040464178 0.030124892 0.0284325 -0.01632806 -0.0012445016 -0.017832436
-0.019273832 0.0031014879 -0.008128117 0.03886199 -0.03107403 -0.027242212 -0.0020495288 0.026742106
-0.022259101 -0.045973957 0.051042918 0.0078994855 -0.011079243 0.050171506 0.01902017 0.007910469
0.029324282 -0.019009765 0.07330072 0.010685041 0.017640436 0.039085638 -0.02100988 -0.029635057
-0.015740227 0.027367046 0.000787821 0.030408373 0.012727665 0.04444902 0.0146208545 0.0068850103
0.046768386 0.019540139 0.007135944 -0.018667476 0.012136123 0.04823922 -0.009805025 0.039014116
-0.07241553 -0.0048655346 0.040565915 0.006019285 -0.01399248 -0.027471717 0.005553406 -0.06814487
-0.013612409 0.004441321 0.026821153 -0.030713446 0.013704195 -0.00043499123 -0.029131284 0.028639387
0.017226717 -0.035937753 0.012108427 0.011857724 -0.004612989 0.034542058 -0.03271819 0.037252463
0.062133595 -0.02787774 -0.010654842 0.028633717 -0.044393323 0.015495279 -0.0047255214 -0.044056475
-0.009653613 0.052003525 -0.015817314 -0.020984141 0.010761557 -0.00852535 -0.005645176 -0.011669271
-0.009726767 0.03669906 -0.053157125 -0.049829382 -0.027182661 -0.010437731 0.00047046875 -0.014289301
-0.025684733 0.0016055729 0.0038502042 0.035331473 -0.013814543 0.0048057996 0.0124641005 0.018315399
0.016321717 -0.0036178888 0.04120882 0.017574783 0.0023966553 0.011719336 0.058439784 0.009647762
-0.020755945 -0.0019737636 0.0026402702 0.01403751 -0.040373903 -0.011259862 0.0069100014 0.0038555518
-0.0047207368 0.051249254 0.057839498 -0.015636602 -0.033475563 -0.03698439 -0.018526671 0.030053753
-0.05176078 -0.074362345 0.03987851 0.039841693 -0.019359034 -0.005174065 0.040573027 -0.019832898
0.028994733 0.017728204 -0.030314367 -0.049339842 0.002780326 0.03228586 0.06453408 0.03538408
-0.0020930024 -0.030143868 -0.053630803 -0.036762886 0.011318001 -0.025329124 0.02448148 0.004957145
0.003934397 -0.005547303 -0.003784933 0.011641868 0.005576798 -0.057258576 0.0535151 -0.051699936
0.026448155 -0.008175619 -0.024889495 0.008930785 -0.012937535 -0.01127633 0.016631585 -0.022510663
0.024902837 0.008343576 -0.025543744 -0.06818623 0.014915897 0.009227809 0.031426463 0.031458106
0.033792607 -0.0032639138 0.046472512 0.051926084 0.007998045 0.006672996 -0.02485542 -0.017000247
0.02020346 0.00096705667 0.009431019 -0.0061874613 -0.02004014 0.029208213 0.0141904615 0.021642612
-0.006172535 -0.0022687158 0.015971398 0.047798097 -0.004527695 -0.009050365 -0.0031238333 -0.05549212
0.019097285 0.019897595 0.033863068 -0.033435084 -0.028071301 -0.016755337 -0.02930527 0.028651694
-0.0059689134 0.04839606 -0.040066287 -0.005870416 0.0008553923 0.030324012 -0.00096584635 0.008228765
0.02532491 0.021868626 0.017553171 0.007695749 0.03376006 -0.010613839 0.0075807357 0.014155419

fusion_stream.2.bias f4 [128]
00000000: 0e34 8cbb a40d 2f3c 7c80 993b bf87 07bb
00000010: 57df 5abb 79b4 a93b 05b0 863a 86ec 603b
00000020: e111 123c af28 09bb e902 b13a ad91 29bc
00000030: 1888 3ebc db70 ecbb 7463 67bb 1d1a f9b9
00000040: 2d0a 3eba 5e0a 39ba edbc c73b 85e6 92bc
00000050: 41e2 983a 4d0d 00bc 2f84 88bb 8cee 3bbc
00000060: 225e 303c 1831 c73b 892c 5f3a d902 ac3b
00000070: ddcc 2dbc 8657 513c 72c7 fc3a fddd 74bb
00000080: 6cae f5bb f93b bbbc 5f28 2fbd 2cbb 28bc
00000090: 435b 9eba 1260 fbbb 29e3 c339 6292 7e3a
000000a0: 461c 903c aa7b 78bb 329e a0bb 79b3 c1ba
000000b0: 3b1a c6b9 0da6 863c cf79 50bc d136 deba
000000c0: 5f18 19bc a255 b839 ec36 82ba b5a6 893b
000000d0: 32fd 333a 373d f73b 72c5 4cbc 5aba bbbb
000000e0: d9b4 1cbb 87e8 a8ba 95e9 21ba ac65 a1ba
000000f0: 48ff 80bb 9782 94b8 44a5 7bbb f178 2eb7
00000100: 9d52 22bb 6452 a4bb d6a7 7dbc 5917 45b6
00000110: 81d6 433c fd56 083c bff5 85bc ebaa 8c3a
00000120: 4ae8 3b3c 214d a9b9 d369 dfb7 f9cb 803b
00000130: c279 073c 3e1e 05bc 6bd2 773b 07b9 52ba
00000140: 91d7 45bb 394e e03c 42a6 043c aa91 463b
00000150: 70f1 4c3a ea1d 983b efbf b33a b3bc c0b8
00000160: b01b 4f3b eb29 1ebb a298 1dbb f533 02bb
00000170: c83f 6dbb eedf 54bc 607d 073b d3f9 8abb
00000180: fc9a 7dbb 7d82 423c 519f 26bb 9e82 2f3c
00000190: 432c 7c3b 08fd 68bc a7eb 893c 6e07 0e3b
000001a0: 1797 4d3b de8c 53bc de46 f53a a486 9e3b
000001b0: 00aa 893a 8c1f b739 228d a6bb 25e7 ac3b
000001c0: 5346 82bb 563b 89bc 48e3 892a 564a 3d38
000001d0: c7fd dc3b efe4 b83a 4076 153b c81e 3034
000001e0: 1f40 a5bb 9dca cd3b ccbb b93b 9a91 e3b9
000001f0: 787c a2ba c9ad b6bc 04d0 bcbb 63e0 9936
-0.0042786663 0.0106844045 0.004684506 -0.0020680276 -0.003339728 0.0051789847 0.0010275847 0.0034320666
0.0089153955 -0.002092879 0.0013504896 -0.010349673 -0.011629127 -0.007215602 -0.0035307081 -0.00047512437
-0.0007249441 -0.0007058735 0.0060955198 -0.017932186 0.0011664109 -0.007815671 -0.004166148 -0.011470448
0.0107646305 0.0060788505 0.0008513411 0.005249363 -0.010607925 0.012777215 0.0019285514 -0.003736376
-0.0074975993 -0.022855746 -0.04276311 -0.0102985315 -0.0012081641 -0.0076713646 0.00037362546 0.0009711144
0.017591607 -0.0037915506 -0.004901671 -0.0014778218 -0.00037785046 0.016436601 -0.012724354 -0.0016953592
-0.009344189 0.00035159016 -0.0009934581 0.004200781 0.0006866037 0.007545139 -0.0124982465 -0.005729002
-0.0023911505 -0.0012886681 -0.0006176469 -0.0012313626 -0.003936682 -7.081514e-05 -0.0038398067 -1.0399367e-05
-0.002476848 -0.0050147045 -0.01548191 -2.9368878e-06 0.011952997 0.008321521 -0.016352532 0.001073209
0.011468956 -0.00032291657 -2.663295e-05 0.0039305654 0.008268775 -0.008124886 0.0037814628 -0.00080384355
-0.0030188302 0.02738105 0.00809628 0.0030299225 0.00078179594 0.004642238 0.0013713817 -9.1904214e-05
0.0031602196 -0.0024133872 -0.0024047275 -0.0019867395 -0.0036201347 -0.012992842 0.0020674095 -0.004241207
-0.0038697114 0.011871931 -0.002542455 0.010712294 0.003847853 -0.014220484 0.016836 0.002167191
0.0031370574 -0.012912003 0.0018713137 0.0048378278 0.0010502934 0.00034927984 -0.0050827423 0.005276578
-0.0039756685 -0.016751926 2.4493797e-13 4.5130342e-05 0.00674412 0.0014106313 0.0022806078 1.6402475e-07
-0.005043044 0.006280257 0.005668139 -0.00043405296 -0.0012396714 -0.022299664 -0.005762102 4.5858774e-06
